…
I0625 17:46:57.684098 32898 net.cpp:294] The NetState phase (0) differed from the phase (1) specified by a rule in layer cap_len
I0625 17:46:57.684105 32898 net.cpp:294] The NetState phase (0) differed from the phase (1) specified by a rule in layer accuracy
I0625 17:46:57.684247 32898 net.cpp:51] Initializing net from parameters: 
name: "LeNet"
state {
  phase: TRAIN
  level: 0
  stage: ""
}
layer {
  name: "mnist"
  type: "Data"
  top: "data"
  top: "label"
  include {
    phase: TRAIN
  }
  transform_param {
    scale: 0.00390625
  }
  data_param {
    source: "examples/mnist/mnist_train_lmdb"
    batch_size: 128
    backend: LMDB
  }
}
layer {
  name: "conv1"
  type: "Convolution"
  bottom: "data"
  top: "conv1"
  param {
    lr_mult: 1
  }
  param {
    lr_mult: 2
  }
  convolution_param {
    num_output: 32
    pad: 2
    kernel_size: 5
    stride: 2
    weight_filler {
      type: "xavier"
    }
    bias_filler {
      type: "constant"
    }
  }
}
layer {
  name: "relu1"
  type: "ReLU"
  bottom: "conv1"
  top: "conv1"
}
layer {
  name: "conv2"
  type: "Convolution"
  bottom: "conv1"
  top: "conv2"
  param {
    lr_mult: 1
  }
  param {
    lr_mult: 2
  }
  convolution_param {
    num_output: 32
    kernel_size: 1
    stride: 1
    weight_filler {
      type: "xavier"
    }
    bias_filler {
      type: "constant"
    }
  }
}
layer {
  name: "reshape"
  type: "CapsuleReshape"
  bottom: "conv2"
  top: "conv2_reshaped"
  capsule_reshape_param {
    capsule_dim: 16
  }
}
layer {
  name: "squash1"
  type: "Squash"
  bottom: "conv2_reshaped"
  top: "squash1"
  squash_param {
    capsule_dim: 16
  }
}
layer {
  name: "cap_conv_transform"
  type: "CapsuleConvTransform"
  bottom: "squash1"
  top: "cap_conv_transform"
  capsule_conv_transform_param {
    weight_filler {
      type: "xavier"
    }
    bias_filler {
      type: "constant"
      value: 0
    }
    stride: 2
    kh: 4
    kw: 4
    input_capsule_num: 2
    input_capsule_shape {
      dim: 4
      dim: 4
    }
    output_capsule_num: 32
    output_capsule_shape {
      dim: 4
      dim: 4
    }
    input_h: 14
    input_w: 14
  }
}
layer {
  name: "cap_conv_routing"
  type: "CapsuleConvRouting"
  bottom: "cap_conv_transform"
  top: "cap_conv_routing"
  capsule_conv_routing_param {
    weight_filler {
      type: "xavier"
    }
    stride: 2
    kh: 4
    kw: 4
    input_capsule_num: 2
    output_capsule_num: 32
    output_capsule_shape {
      dim: 4
      dim: 4
    }
    input_h: 14
    input_w: 14
  }
}
layer {
  name: "squash2"
  type: "Squash"
  bottom: "cap_conv_routing"
  top: "squash2"
  squash_param {
    capsule_dim: 16
  }
}
layer {
  name: "cap_conv_transform1"
  type: "CapsuleConvTransform"
  bottom: "squash2"
  top: "cap_conv_transform1"
  capsule_conv_transform_param {
    weight_filler {
      type: "xavier"
    }
    bias_filler {
      type: "constant"
      value: 0
    }
    stride: 1
    kh: 3
    kw: 3
    input_capsule_num: 32
    input_capsule_shape {
      dim: 4
      dim: 4
    }
    output_capsule_num: 32
    output_capsule_shape {
      dim: 4
      dim: 4
    }
    input_h: 6
    input_w: 6
  }
}
layer {
  name: "cap_conv_routing1"
  type: "CapsuleConvRouting"
  bottom: "cap_conv_transform1"
  top: "cap_conv_routing1"
  capsule_conv_routing_param {
    weight_filler {
      type: "xavier"
    }
    stride: 1
    kh: 3
    kw: 3
    input_capsule_num: 32
    output_capsule_num: 32
    output_capsule_shape {
      dim: 4
      dim: 4
    }
    input_h: 6
    input_w: 6
  }
}
layer {
  name: "squash3"
  type: "Squash"
  bottom: "cap_conv_routing1"
  top: "squash3"
  squash_param {
    capsule_dim: 16
  }
}
layer {
  name: "cap_conv_transform2"
  type: "CapsuleConvTransform"
  bottom: "squash3"
  top: "cap_conv_transform2"
  capsule_conv_transform_param {
    weight_filler {
      type: "xavier"
    }
    bias_filler {
      type: "constant"
      value: 0
    }
    stride: 2
    kh: 4
    kw: 4
    input_capsule_num: 32
    input_capsule_shape {
      dim: 4
      dim: 4
    }
    output_capsule_num: 10
    output_capsule_shape {
      dim: 4
      dim: 4
    }
    input_h: 4
    input_w: 4
  }
}
layer {
  name: "cap_conv_routing2"
  type: "CapsuleConvRouting"
  bottom: "cap_conv_transform2"
  top: "cap_conv_routing2"
  capsule_conv_routing_param {
    weight_filler {
      type: "xavier"
    }
    stride: 2
    kh: 4
    kw: 4
    input_capsule_num: 32
    output_capsule_num: 10
    output_capsule_shape {
      dim: 4
      dim: 4
    }
    input_h: 4
    input_w: 4
  }
}
layer {
  name: "squash4"
  type: "Squash"
  bottom: "cap_conv_routing2"
  top: "squash4"
  squash_param {
    capsule_dim: 16
  }
}
layer {
  name: "margin"
  type: "MarginLoss"
  bottom: "squash4"
  bottom: "label"
  top: "loss"
  margin_param {
    num_class: 10
    m_upper_bound: 0.9
    m_lower_bound: 0.1
    lambda: 0.5
  }
}
I0625 17:46:57.684386 32898 layer_factory.hpp:77] Creating layer mnist
I0625 17:46:57.687404 32898 db_lmdb.cpp:35] Opened lmdb examples/mnist/mnist_train_lmdb
I0625 17:46:57.687608 32898 net.cpp:84] Creating Layer mnist
I0625 17:46:57.687626 32898 net.cpp:380] mnist -> data
I0625 17:46:57.687654 32898 net.cpp:380] mnist -> label
I0625 17:46:57.688946 32898 data_layer.cpp:45] output data size: 128,1,28,28
I0625 17:46:57.691248 32898 net.cpp:122] Setting up mnist
I0625 17:46:57.691284 32898 net.cpp:129] Top shape: 128 1 28 28 (100352)
I0625 17:46:57.691294 32898 net.cpp:129] Top shape: 128 (128)
I0625 17:46:57.691300 32898 net.cpp:137] Memory required for data: 401920
I0625 17:46:57.691313 32898 layer_factory.hpp:77] Creating layer conv1
I0625 17:46:57.691335 32898 net.cpp:84] Creating Layer conv1
I0625 17:46:57.691344 32898 net.cpp:406] conv1 <- data
I0625 17:46:57.691361 32898 net.cpp:380] conv1 -> conv1
I0625 17:46:57.692945 32898 net.cpp:122] Setting up conv1
I0625 17:46:57.692962 32898 net.cpp:129] Top shape: 128 32 14 14 (802816)
I0625 17:46:57.692970 32898 net.cpp:137] Memory required for data: 3613184
I0625 17:46:57.692987 32898 layer_factory.hpp:77] Creating layer relu1
I0625 17:46:57.693001 32898 net.cpp:84] Creating Layer relu1
I0625 17:46:57.693008 32898 net.cpp:406] relu1 <- conv1
I0625 17:46:57.693017 32898 net.cpp:367] relu1 -> conv1 (in-place)
I0625 17:46:57.693030 32898 net.cpp:122] Setting up relu1
I0625 17:46:57.693038 32898 net.cpp:129] Top shape: 128 32 14 14 (802816)
I0625 17:46:57.693045 32898 net.cpp:137] Memory required for data: 6824448
I0625 17:46:57.693051 32898 layer_factory.hpp:77] Creating layer conv2
I0625 17:46:57.693064 32898 net.cpp:84] Creating Layer conv2
I0625 17:46:57.693071 32898 net.cpp:406] conv2 <- conv1
I0625 17:46:57.693080 32898 net.cpp:380] conv2 -> conv2
I0625 17:46:57.693287 32898 net.cpp:122] Setting up conv2
I0625 17:46:57.693298 32898 net.cpp:129] Top shape: 128 32 14 14 (802816)
I0625 17:46:57.693305 32898 net.cpp:137] Memory required for data: 10035712
I0625 17:46:57.693317 32898 layer_factory.hpp:77] Creating layer reshape
I0625 17:46:57.693330 32898 net.cpp:84] Creating Layer reshape
I0625 17:46:57.693336 32898 net.cpp:406] reshape <- conv2
I0625 17:46:57.693344 32898 net.cpp:380] reshape -> conv2_reshaped
I0625 17:46:57.693373 32898 net.cpp:122] Setting up reshape
I0625 17:46:57.693383 32898 net.cpp:129] Top shape: 128 392 16 (802816)
I0625 17:46:57.693392 32898 net.cpp:137] Memory required for data: 13246976
I0625 17:46:57.693398 32898 layer_factory.hpp:77] Creating layer squash1
I0625 17:46:57.693411 32898 net.cpp:84] Creating Layer squash1
I0625 17:46:57.693433 32898 net.cpp:406] squash1 <- conv2_reshaped
I0625 17:46:57.693441 32898 net.cpp:380] squash1 -> squash1
I0625 17:46:57.693507 32898 net.cpp:122] Setting up squash1
I0625 17:46:57.693518 32898 net.cpp:129] Top shape: 128 392 16 (802816)
I0625 17:46:57.693526 32898 net.cpp:137] Memory required for data: 16458240
I0625 17:46:57.693532 32898 layer_factory.hpp:77] Creating layer cap_conv_transform
I0625 17:46:57.693545 32898 net.cpp:84] Creating Layer cap_conv_transform
I0625 17:46:57.693552 32898 net.cpp:406] cap_conv_transform <- squash1
I0625 17:46:57.693563 32898 net.cpp:380] cap_conv_transform -> cap_conv_transform
I0625 17:46:57.696593 32898 net.cpp:122] Setting up cap_conv_transform
I0625 17:46:57.696612 32898 net.cpp:129] Top shape: 128 1152 32 16 (75497472)
I0625 17:46:57.696620 32898 net.cpp:137] Memory required for data: 318448128
I0625 17:46:57.696635 32898 layer_factory.hpp:77] Creating layer cap_conv_routing
I0625 17:46:57.696651 32898 net.cpp:84] Creating Layer cap_conv_routing
I0625 17:46:57.696660 32898 net.cpp:406] cap_conv_routing <- cap_conv_transform
I0625 17:46:57.696671 32898 net.cpp:380] cap_conv_routing -> cap_conv_routing
I0625 17:46:57.696727 32898 net.cpp:122] Setting up cap_conv_routing
I0625 17:46:57.696738 32898 net.cpp:129] Top shape: 128 1152 16 (2359296)
I0625 17:46:57.696744 32898 net.cpp:137] Memory required for data: 327885312
I0625 17:46:57.696753 32898 layer_factory.hpp:77] Creating layer squash2
I0625 17:46:57.696779 32898 net.cpp:84] Creating Layer squash2
I0625 17:46:57.696787 32898 net.cpp:406] squash2 <- cap_conv_routing
I0625 17:46:57.696799 32898 net.cpp:380] squash2 -> squash2
I0625 17:46:57.696848 32898 net.cpp:122] Setting up squash2
I0625 17:46:57.696858 32898 net.cpp:129] Top shape: 128 1152 16 (2359296)
I0625 17:46:57.696866 32898 net.cpp:137] Memory required for data: 337322496
I0625 17:46:57.696871 32898 layer_factory.hpp:77] Creating layer cap_conv_transform1
I0625 17:46:57.696883 32898 net.cpp:84] Creating Layer cap_conv_transform1
I0625 17:46:57.696890 32898 net.cpp:406] cap_conv_transform1 <- squash2
I0625 17:46:57.696898 32898 net.cpp:380] cap_conv_transform1 -> cap_conv_transform1
I0625 17:46:57.704797 32898 net.cpp:122] Setting up cap_conv_transform1
I0625 17:46:57.704815 32898 net.cpp:129] Top shape: 128 512 288 16 (301989888)
I0625 17:46:57.704823 32898 net.cpp:137] Memory required for data: 1545282048
I0625 17:46:57.704835 32898 layer_factory.hpp:77] Creating layer cap_conv_routing1
I0625 17:46:57.704846 32898 net.cpp:84] Creating Layer cap_conv_routing1
I0625 17:46:57.704854 32898 net.cpp:406] cap_conv_routing1 <- cap_conv_transform1
I0625 17:46:57.704864 32898 net.cpp:380] cap_conv_routing1 -> cap_conv_routing1
I0625 17:46:57.704913 32898 net.cpp:122] Setting up cap_conv_routing1
I0625 17:46:57.704922 32898 net.cpp:129] Top shape: 128 512 16 (1048576)
I0625 17:46:57.704928 32898 net.cpp:137] Memory required for data: 1549476352
I0625 17:46:57.704936 32898 layer_factory.hpp:77] Creating layer squash3
I0625 17:46:57.704946 32898 net.cpp:84] Creating Layer squash3
I0625 17:46:57.704952 32898 net.cpp:406] squash3 <- cap_conv_routing1
I0625 17:46:57.704959 32898 net.cpp:380] squash3 -> squash3
I0625 17:46:57.704998 32898 net.cpp:122] Setting up squash3
I0625 17:46:57.705008 32898 net.cpp:129] Top shape: 128 512 16 (1048576)
I0625 17:46:57.705014 32898 net.cpp:137] Memory required for data: 1553670656
I0625 17:46:57.705020 32898 layer_factory.hpp:77] Creating layer cap_conv_transform2
I0625 17:46:57.705030 32898 net.cpp:84] Creating Layer cap_conv_transform2
I0625 17:46:57.705036 32898 net.cpp:406] cap_conv_transform2 <- squash3
I0625 17:46:57.705046 32898 net.cpp:380] cap_conv_transform2 -> cap_conv_transform2
I0625 17:46:57.705602 32898 net.cpp:122] Setting up cap_conv_transform2
I0625 17:46:57.705612 32898 net.cpp:129] Top shape: 128 10 512 16 (10485760)
I0625 17:46:57.705619 32898 net.cpp:137] Memory required for data: 1595613696
I0625 17:46:57.705631 32898 layer_factory.hpp:77] Creating layer cap_conv_routing2
I0625 17:46:57.705655 32898 net.cpp:84] Creating Layer cap_conv_routing2
I0625 17:46:57.705663 32898 net.cpp:406] cap_conv_routing2 <- cap_conv_transform2
I0625 17:46:57.705672 32898 net.cpp:380] cap_conv_routing2 -> cap_conv_routing2
I0625 17:46:57.705721 32898 net.cpp:122] Setting up cap_conv_routing2
I0625 17:46:57.705731 32898 net.cpp:129] Top shape: 128 10 16 (20480)
I0625 17:46:57.705737 32898 net.cpp:137] Memory required for data: 1595695616
I0625 17:46:57.705745 32898 layer_factory.hpp:77] Creating layer squash4
I0625 17:46:57.705754 32898 net.cpp:84] Creating Layer squash4
I0625 17:46:57.705760 32898 net.cpp:406] squash4 <- cap_conv_routing2
I0625 17:46:57.705768 32898 net.cpp:380] squash4 -> squash4
I0625 17:46:57.705801 32898 net.cpp:122] Setting up squash4
I0625 17:46:57.705811 32898 net.cpp:129] Top shape: 128 10 16 (20480)
I0625 17:46:57.705816 32898 net.cpp:137] Memory required for data: 1595777536
I0625 17:46:57.705822 32898 layer_factory.hpp:77] Creating layer margin
I0625 17:46:57.705840 32898 net.cpp:84] Creating Layer margin
I0625 17:46:57.705847 32898 net.cpp:406] margin <- squash4
I0625 17:46:57.705854 32898 net.cpp:406] margin <- label
I0625 17:46:57.705863 32898 net.cpp:380] margin -> loss
…
I0625 17:46:57.706872 32898 solver.cpp:190] Creating test net (#0) specified by net file: examples/mnist/g_capsule_train.prototxt
I0625 17:46:57.706912 32898 net.cpp:294] The NetState phase (1) differed from the phase (0) specified by a rule in layer mnist
I0625 17:46:57.707053 32898 net.cpp:51] Initializing net from parameters: 
name: "LeNet"
state {
  phase: TEST
}
layer {
  name: "mnist"
  type: "Data"
  top: "data"
  top: "label"
  include {
    phase: TEST
  }
  transform_param {
    scale: 0.00390625
  }
  data_param {
    source: "examples/mnist/mnist_test_lmdb"
    batch_size: 100
    backend: LMDB
  }
}
layer {
  name: "conv1"
  type: "Convolution"
  bottom: "data"
  top: "conv1"
  param {
    lr_mult: 1
  }
  param {
    lr_mult: 2
  }
  convolution_param {
    num_output: 32
    pad: 2
    kernel_size: 5
    stride: 2
    weight_filler {
      type: "xavier"
    }
    bias_filler {
      type: "constant"
    }
  }
}
layer {
  name: "relu1"
  type: "ReLU"
  bottom: "conv1"
  top: "conv1"
}
layer {
  name: "conv2"
  type: "Convolution"
  bottom: "conv1"
  top: "conv2"
  param {
    lr_mult: 1
  }
  param {
    lr_mult: 2
  }
  convolution_param {
    num_output: 32
    kernel_size: 1
    stride: 1
    weight_filler {
      type: "xavier"
    }
    bias_filler {
      type: "constant"
    }
  }
}
layer {
  name: "reshape"
  type: "CapsuleReshape"
  bottom: "conv2"
  top: "conv2_reshaped"
  capsule_reshape_param {
    capsule_dim: 16
  }
}
layer {
  name: "squash1"
  type: "Squash"
  bottom: "conv2_reshaped"
  top: "squash1"
  squash_param {
    capsule_dim: 16
  }
}
layer {
  name: "cap_conv_transform"
  type: "CapsuleConvTransform"
  bottom: "squash1"
  top: "cap_conv_transform"
  capsule_conv_transform_param {
    weight_filler {
      type: "xavier"
    }
    bias_filler {
      type: "constant"
      value: 0
    }
    stride: 2
    kh: 4
    kw: 4
    input_capsule_num: 2
    input_capsule_shape {
      dim: 4
      dim: 4
    }
    output_capsule_num: 32
    output_capsule_shape {
      dim: 4
      dim: 4
    }
    input_h: 14
    input_w: 14
  }
}
layer {
  name: "cap_conv_routing"
  type: "CapsuleConvRouting"
  bottom: "cap_conv_transform"
  top: "cap_conv_routing"
  capsule_conv_routing_param {
    weight_filler {
      type: "xavier"
    }
    stride: 2
    kh: 4
    kw: 4
    input_capsule_num: 2
    output_capsule_num: 32
    output_capsule_shape {
      dim: 4
      dim: 4
    }
    input_h: 14
    input_w: 14
  }
}
layer {
  name: "squash2"
  type: "Squash"
  bottom: "cap_conv_routing"
  top: "squash2"
  squash_param {
    capsule_dim: 16
  }
}
layer {
  name: "cap_conv_transform1"
  type: "CapsuleConvTransform"
  bottom: "squash2"
  top: "cap_conv_transform1"
  capsule_conv_transform_param {
    weight_filler {
      type: "xavier"
    }
    bias_filler {
      type: "constant"
      value: 0
    }
    stride: 1
    kh: 3
    kw: 3
    input_capsule_num: 32
    input_capsule_shape {
      dim: 4
      dim: 4
    }
    output_capsule_num: 32
    output_capsule_shape {
      dim: 4
      dim: 4
    }
    input_h: 6
    input_w: 6
  }
}
layer {
  name: "cap_conv_routing1"
  type: "CapsuleConvRouting"
  bottom: "cap_conv_transform1"
  top: "cap_conv_routing1"
  capsule_conv_routing_param {
    weight_filler {
      type: "xavier"
    }
    stride: 1
    kh: 3
    kw: 3
    input_capsule_num: 32
    output_capsule_num: 32
    output_capsule_shape {
      dim: 4
      dim: 4
    }
    input_h: 6
    input_w: 6
  }
}
layer {
  name: "squash3"
  type: "Squash"
  bottom: "cap_conv_routing1"
  top: "squash3"
  squash_param {
    capsule_dim: 16
  }
}
layer {
  name: "cap_conv_transform2"
  type: "CapsuleConvTransform"
  bottom: "squash3"
  top: "cap_conv_transform2"
  capsule_conv_transform_param {
    weight_filler {
      type: "xavier"
    }
    bias_filler {
      type: "constant"
      value: 0
    }
    stride: 2
    kh: 4
    kw: 4
    input_capsule_num: 32
    input_capsule_shape {
      dim: 4
      dim: 4
    }
    output_capsule_num: 10
    output_capsule_shape {
      dim: 4
      dim: 4
    }
    input_h: 4
    input_w: 4
  }
}
layer {
  name: "cap_conv_routing2"
  type: "CapsuleConvRouting"
  bottom: "cap_conv_transform2"
  top: "cap_conv_routing2"
  capsule_conv_routing_param {
    weight_filler {
      type: "xavier"
    }
    stride: 2
    kh: 4
    kw: 4
    input_capsule_num: 32
    output_capsule_num: 10
    output_capsule_shape {
      dim: 4
      dim: 4
    }
    input_h: 4
    input_w: 4
  }
}
layer {
  name: "squash4"
  type: "Squash"
  bottom: "cap_conv_routing2"
  top: "squash4"
  squash_param {
    capsule_dim: 16
  }
}
layer {
  name: "cap_len"
  type: "CapsuleLen"
  bottom: "squash4"
  top: "cap_len"
  include {
    phase: TEST
  }
  capsule_len_param {
    num_class: 10
  }
}
layer {
  name: "accuracy"
  type: "Accuracy"
  bottom: "cap_len"
  bottom: "label"
  top: "accuracy"
  include {
    phase: TEST
  }
}
layer {
  name: "margin"
  type: "MarginLoss"
  bottom: "squash4"
  bottom: "label"
  top: "loss"
  margin_param {
    num_class: 10
    m_upper_bound: 0.9
    m_lower_bound: 0.1
    lambda: 0.5
  }
}
I0625 17:46:57.707176 32898 layer_factory.hpp:77] Creating layer mnist
I0625 17:46:57.708323 32898 db_lmdb.cpp:35] Opened lmdb examples/mnist/mnist_test_lmdb
I0625 17:46:57.708570 32898 net.cpp:84] Creating Layer mnist
I0625 17:46:57.708604 32898 net.cpp:380] mnist -> data
I0625 17:46:57.708642 32898 net.cpp:380] mnist -> label
I0625 17:46:57.708729 32898 data_layer.cpp:45] output data size: 100,1,28,28
I0625 17:46:57.711014 32898 net.cpp:122] Setting up mnist
I0625 17:46:57.711031 32898 net.cpp:129] Top shape: 100 1 28 28 (78400)
I0625 17:46:57.711040 32898 net.cpp:129] Top shape: 100 (100)
I0625 17:46:57.711046 32898 net.cpp:137] Memory required for data: 314000
I0625 17:46:57.711053 32898 layer_factory.hpp:77] Creating layer label_mnist_1_split
I0625 17:46:57.711066 32898 net.cpp:84] Creating Layer label_mnist_1_split
I0625 17:46:57.711074 32898 net.cpp:406] label_mnist_1_split <- label
I0625 17:46:57.711082 32898 net.cpp:380] label_mnist_1_split -> label_mnist_1_split_0
I0625 17:46:57.711096 32898 net.cpp:380] label_mnist_1_split -> label_mnist_1_split_1
I0625 17:46:57.711155 32898 net.cpp:122] Setting up label_mnist_1_split
I0625 17:46:57.711166 32898 net.cpp:129] Top shape: 100 (100)
I0625 17:46:57.711174 32898 net.cpp:129] Top shape: 100 (100)
I0625 17:46:57.711179 32898 net.cpp:137] Memory required for data: 314800
I0625 17:46:57.711186 32898 layer_factory.hpp:77] Creating layer conv1
I0625 17:46:57.711200 32898 net.cpp:84] Creating Layer conv1
I0625 17:46:57.711207 32898 net.cpp:406] conv1 <- data
I0625 17:46:57.711216 32898 net.cpp:380] conv1 -> conv1
I0625 17:46:57.711419 32898 net.cpp:122] Setting up conv1
I0625 17:46:57.711431 32898 net.cpp:129] Top shape: 100 32 14 14 (627200)
I0625 17:46:57.711437 32898 net.cpp:137] Memory required for data: 2823600
I0625 17:46:57.711449 32898 layer_factory.hpp:77] Creating layer relu1
I0625 17:46:57.711463 32898 net.cpp:84] Creating Layer relu1
I0625 17:46:57.711488 32898 net.cpp:406] relu1 <- conv1
I0625 17:46:57.711513 32898 net.cpp:367] relu1 -> conv1 (in-place)
I0625 17:46:57.711524 32898 net.cpp:122] Setting up relu1
I0625 17:46:57.711532 32898 net.cpp:129] Top shape: 100 32 14 14 (627200)
I0625 17:46:57.711539 32898 net.cpp:137] Memory required for data: 5332400
I0625 17:46:57.711546 32898 layer_factory.hpp:77] Creating layer conv2
I0625 17:46:57.711561 32898 net.cpp:84] Creating Layer conv2
I0625 17:46:57.711568 32898 net.cpp:406] conv2 <- conv1
I0625 17:46:57.711577 32898 net.cpp:380] conv2 -> conv2
I0625 17:46:57.711840 32898 net.cpp:122] Setting up conv2
I0625 17:46:57.711853 32898 net.cpp:129] Top shape: 100 32 14 14 (627200)
I0625 17:46:57.711859 32898 net.cpp:137] Memory required for data: 7841200
I0625 17:46:57.711870 32898 layer_factory.hpp:77] Creating layer reshape
I0625 17:46:57.711879 32898 net.cpp:84] Creating Layer reshape
I0625 17:46:57.711885 32898 net.cpp:406] reshape <- conv2
I0625 17:46:57.711894 32898 net.cpp:380] reshape -> conv2_reshaped
I0625 17:46:57.711956 32898 net.cpp:122] Setting up reshape
I0625 17:46:57.711966 32898 net.cpp:129] Top shape: 100 392 16 (627200)
I0625 17:46:57.711971 32898 net.cpp:137] Memory required for data: 10350000
I0625 17:46:57.711978 32898 layer_factory.hpp:77] Creating layer squash1
I0625 17:46:57.711990 32898 net.cpp:84] Creating Layer squash1
I0625 17:46:57.711997 32898 net.cpp:406] squash1 <- conv2_reshaped
I0625 17:46:57.712005 32898 net.cpp:380] squash1 -> squash1
I0625 17:46:57.712038 32898 net.cpp:122] Setting up squash1
I0625 17:46:57.712049 32898 net.cpp:129] Top shape: 100 392 16 (627200)
I0625 17:46:57.712056 32898 net.cpp:137] Memory required for data: 12858800
I0625 17:46:57.712064 32898 layer_factory.hpp:77] Creating layer cap_conv_transform
I0625 17:46:57.712074 32898 net.cpp:84] Creating Layer cap_conv_transform
I0625 17:46:57.712080 32898 net.cpp:406] cap_conv_transform <- squash1
I0625 17:46:57.712088 32898 net.cpp:380] cap_conv_transform -> cap_conv_transform
I0625 17:46:57.713929 32898 net.cpp:122] Setting up cap_conv_transform
I0625 17:46:57.713946 32898 net.cpp:129] Top shape: 100 1152 32 16 (58982400)
I0625 17:46:57.713953 32898 net.cpp:137] Memory required for data: 248788400
I0625 17:46:57.713980 32898 layer_factory.hpp:77] Creating layer cap_conv_routing
I0625 17:46:57.713994 32898 net.cpp:84] Creating Layer cap_conv_routing
I0625 17:46:57.714000 32898 net.cpp:406] cap_conv_routing <- cap_conv_transform
I0625 17:46:57.714010 32898 net.cpp:380] cap_conv_routing -> cap_conv_routing
I0625 17:46:57.714072 32898 net.cpp:122] Setting up cap_conv_routing
I0625 17:46:57.714082 32898 net.cpp:129] Top shape: 100 1152 16 (1843200)
I0625 17:46:57.714088 32898 net.cpp:137] Memory required for data: 256161200
I0625 17:46:57.714095 32898 layer_factory.hpp:77] Creating layer squash2
I0625 17:46:57.714104 32898 net.cpp:84] Creating Layer squash2
I0625 17:46:57.714110 32898 net.cpp:406] squash2 <- cap_conv_routing
I0625 17:46:57.714118 32898 net.cpp:380] squash2 -> squash2
I0625 17:46:57.714152 32898 net.cpp:122] Setting up squash2
I0625 17:46:57.714161 32898 net.cpp:129] Top shape: 100 1152 16 (1843200)
I0625 17:46:57.714167 32898 net.cpp:137] Memory required for data: 263534000
I0625 17:46:57.714174 32898 layer_factory.hpp:77] Creating layer cap_conv_transform1
I0625 17:46:57.714184 32898 net.cpp:84] Creating Layer cap_conv_transform1
I0625 17:46:57.714190 32898 net.cpp:406] cap_conv_transform1 <- squash2
I0625 17:46:57.714201 32898 net.cpp:380] cap_conv_transform1 -> cap_conv_transform1
I0625 17:46:57.721068 32898 net.cpp:122] Setting up cap_conv_transform1
I0625 17:46:57.721086 32898 net.cpp:129] Top shape: 100 512 288 16 (235929600)
I0625 17:46:57.721092 32898 net.cpp:137] Memory required for data: 1207252400
I0625 17:46:57.721104 32898 layer_factory.hpp:77] Creating layer cap_conv_routing1
I0625 17:46:57.721115 32898 net.cpp:84] Creating Layer cap_conv_routing1
I0625 17:46:57.721122 32898 net.cpp:406] cap_conv_routing1 <- cap_conv_transform1
I0625 17:46:57.721134 32898 net.cpp:380] cap_conv_routing1 -> cap_conv_routing1
I0625 17:46:57.721189 32898 net.cpp:122] Setting up cap_conv_routing1
I0625 17:46:57.721197 32898 net.cpp:129] Top shape: 100 512 16 (819200)
I0625 17:46:57.721204 32898 net.cpp:137] Memory required for data: 1210529200
I0625 17:46:57.721211 32898 layer_factory.hpp:77] Creating layer squash3
I0625 17:46:57.721220 32898 net.cpp:84] Creating Layer squash3
I0625 17:46:57.721226 32898 net.cpp:406] squash3 <- cap_conv_routing1
I0625 17:46:57.721235 32898 net.cpp:380] squash3 -> squash3
I0625 17:46:57.721269 32898 net.cpp:122] Setting up squash3
I0625 17:46:57.721278 32898 net.cpp:129] Top shape: 100 512 16 (819200)
I0625 17:46:57.721284 32898 net.cpp:137] Memory required for data: 1213806000
I0625 17:46:57.721292 32898 layer_factory.hpp:77] Creating layer cap_conv_transform2
I0625 17:46:57.721300 32898 net.cpp:84] Creating Layer cap_conv_transform2
I0625 17:46:57.721307 32898 net.cpp:406] cap_conv_transform2 <- squash3
I0625 17:46:57.721316 32898 net.cpp:380] cap_conv_transform2 -> cap_conv_transform2
I0625 17:46:57.721895 32898 net.cpp:122] Setting up cap_conv_transform2
I0625 17:46:57.721905 32898 net.cpp:129] Top shape: 100 10 512 16 (8192000)
I0625 17:46:57.721911 32898 net.cpp:137] Memory required for data: 1246574000
I0625 17:46:57.721920 32898 layer_factory.hpp:77] Creating layer cap_conv_routing2
I0625 17:46:57.721931 32898 net.cpp:84] Creating Layer cap_conv_routing2
I0625 17:46:57.721937 32898 net.cpp:406] cap_conv_routing2 <- cap_conv_transform2
I0625 17:46:57.721946 32898 net.cpp:380] cap_conv_routing2 -> cap_conv_routing2
I0625 17:46:57.721997 32898 net.cpp:122] Setting up cap_conv_routing2
I0625 17:46:57.722007 32898 net.cpp:129] Top shape: 100 10 16 (16000)
I0625 17:46:57.722012 32898 net.cpp:137] Memory required for data: 1246638000
I0625 17:46:57.722020 32898 layer_factory.hpp:77] Creating layer squash4
I0625 17:46:57.722028 32898 net.cpp:84] Creating Layer squash4
I0625 17:46:57.722035 32898 net.cpp:406] squash4 <- cap_conv_routing2
I0625 17:46:57.722045 32898 net.cpp:380] squash4 -> squash4
I0625 17:46:57.722079 32898 net.cpp:122] Setting up squash4
I0625 17:46:57.722088 32898 net.cpp:129] Top shape: 100 10 16 (16000)
I0625 17:46:57.722097 32898 net.cpp:137] Memory required for data: 1246702000
I0625 17:46:57.722115 32898 layer_factory.hpp:77] Creating layer squash4_squash4_0_split
I0625 17:46:57.722126 32898 net.cpp:84] Creating Layer squash4_squash4_0_split
I0625 17:46:57.722132 32898 net.cpp:406] squash4_squash4_0_split <- squash4
I0625 17:46:57.722141 32898 net.cpp:380] squash4_squash4_0_split -> squash4_squash4_0_split_0
I0625 17:46:57.722149 32898 net.cpp:380] squash4_squash4_0_split -> squash4_squash4_0_split_1
I0625 17:46:57.722182 32898 net.cpp:122] Setting up squash4_squash4_0_split
I0625 17:46:57.722192 32898 net.cpp:129] Top shape: 100 10 16 (16000)
I0625 17:46:57.722199 32898 net.cpp:129] Top shape: 100 10 16 (16000)
I0625 17:46:57.722205 32898 net.cpp:137] Memory required for data: 1246830000
I0625 17:46:57.722211 32898 layer_factory.hpp:77] Creating layer cap_len
I0625 17:46:57.722223 32898 net.cpp:84] Creating Layer cap_len
I0625 17:46:57.722229 32898 net.cpp:406] cap_len <- squash4_squash4_0_split_0
I0625 17:46:57.722239 32898 net.cpp:380] cap_len -> cap_len
I0625 17:46:57.722272 32898 net.cpp:122] Setting up cap_len
I0625 17:46:57.722281 32898 net.cpp:129] Top shape: 100 10 (1000)
I0625 17:46:57.722287 32898 net.cpp:137] Memory required for data: 1246834000
I0625 17:46:57.722293 32898 layer_factory.hpp:77] Creating layer accuracy
I0625 17:46:57.722309 32898 net.cpp:84] Creating Layer accuracy
I0625 17:46:57.722316 32898 net.cpp:406] accuracy <- cap_len
I0625 17:46:57.722323 32898 net.cpp:406] accuracy <- label_mnist_1_split_0
I0625 17:46:57.722332 32898 net.cpp:380] accuracy -> accuracy
…
