…
I0409 20:15:25.043913 24862 solver.cpp:102] Creating training net from net file: examples/mnist/lenet_train_test.prototxt
I0409 20:15:25.044919 24862 net.cpp:294] The NetState phase (0) differed from the phase (1) specified by a rule in layer mnist
I0409 20:15:25.045097 24862 net.cpp:51] Initializing net from parameters: 
name: "LeNet"
state {
  phase: TRAIN
  level: 0
  stage: ""
}
layer {
  name: "mnist"
  type: "Data"
  top: "data"
  top: "label"
  include {
    phase: TRAIN
  }
  transform_param {
    scale: 0.00390625
  }
  data_param {
    source: "examples/mnist/mnist_train_lmdb"
    batch_size: 128
    backend: LMDB
  }
}
layer {
  name: "conv1"
  type: "Convolution"
  bottom: "data"
  top: "conv1"
  param {
    lr_mult: 1
  }
  param {
    lr_mult: 2
  }
  convolution_param {
    num_output: 256
    kernel_size: 9
    stride: 1
    weight_filler {
      type: "xavier"
    }
    bias_filler {
      type: "constant"
    }
  }
}
layer {
  name: "relu1"
  type: "ReLU"
  bottom: "conv1"
  top: "conv1"
}
layer {
  name: "conv2"
  type: "Convolution"
  bottom: "conv1"
  top: "conv2"
  param {
    lr_mult: 1
  }
  param {
    lr_mult: 2
  }
  convolution_param {
    num_output: 256
    kernel_size: 9
    stride: 2
    weight_filler {
      type: "xavier"
    }
    bias_filler {
      type: "constant"
    }
  }
}
layer {
  name: "squash1"
  type: "Squash"
  bottom: "conv2"
  top: "conv2"
  squash_param {
    capsule_dim: 8
  }
}
layer {
  name: "capsule"
  type: "Cap"
  bottom: "conv2"
  top: "capsule"
  param {
    lr_mult: 1
  }
  param {
    lr_mult: 2
  }
  cap_param {
    weight_filler {
      type: "xavier"
    }
    bias_filler {
      type: "constant"
    }
    input_capsule_dim: 8
    output_capsule_dim: 16
    output_capsule_num: 10
  }
}
layer {
  name: "squash2"
  type: "Squash"
  bottom: "capsule"
  top: "capsule"
  squash_param {
    capsule_dim: 16
  }
}
layer {
  name: "margin"
  type: "MarginLoss"
  bottom: "capsule"
  bottom: "label"
  top: "loss"
  margin_param {
    num_class: 10
    m_upper_bound: 0.9
    m_lower_bound: 0.1
    lambda: 0.5
  }
}
layer {
  name: "mask"
  type: "CapsuleMask"
  bottom: "capsule"
  top: "masked_capsule"
  capsule_mask_param {
    class_num: 10
  }
}
layer {
  name: "decode"
  type: "InnerProduct"
  bottom: "masked_capsule"
  top: "decode"
  param {
    lr_mult: 1
    decay_mult: 1
  }
  param {
    lr_mult: 1
    decay_mult: 0
  }
  inner_product_param {
    num_output: 512
    weight_filler {
      type: "gaussian"
      std: 1
      sparse: 15
    }
    bias_filler {
      type: "constant"
    }
  }
}
layer {
  name: "sigmoid2"
  type: "Sigmoid"
  bottom: "decode"
  top: "decode"
}
layer {
  name: "decode1"
  type: "InnerProduct"
  bottom: "decode"
  top: "decode1"
  param {
    lr_mult: 1
    decay_mult: 1
  }
  param {
    lr_mult: 1
    decay_mult: 0
  }
  inner_product_param {
    num_output: 1024
    weight_filler {
      type: "gaussian"
      std: 1
      sparse: 15
    }
    bias_filler {
      type: "constant"
    }
  }
}
layer {
  name: "sigmoid1"
  type: "Sigmoid"
  bottom: "decode1"
  top: "decode1"
}
layer {
  name: "decode2"
  type: "InnerProduct"
  bottom: "decode1"
  top: "decode2"
  param {
    lr_mult: 1
    decay_mult: 1
  }
  param {
    lr_mult: 1
    decay_mult: 0
  }
  inner_product_param {
    num_output: 784
    weight_filler {
      type: "gaussian"
      std: 1
      sparse: 15
    }
    bias_filler {
      type: "constant"
    }
  }
}
layer {
  name: "sigmoid"
  type: "Sigmoid"
  bottom: "decode2"
  top: "sigmoid"
}
layer {
  name: "flatdata"
  type: "Flatten"
  bottom: "data"
  top: "flatdata"
}
layer {
  name: "loss"
  type: "EuclideanLoss"
  bottom: "sigmoid"
  bottom: "flatdata"
  top: "loss1"
  loss_weight: 0.392
}
I0409 20:15:25.045291 24862 layer_factory.hpp:77] Creating layer mnist
I0409 20:15:25.047662 24862 db_lmdb.cpp:35] Opened lmdb examples/mnist/mnist_train_lmdb
I0409 20:15:25.047843 24862 net.cpp:84] Creating Layer mnist
I0409 20:15:25.047864 24862 net.cpp:380] mnist -> data
I0409 20:15:25.047904 24862 net.cpp:380] mnist -> label
I0409 20:15:25.055893 24862 data_layer.cpp:45] output data size: 128,1,28,28
I0409 20:15:25.059079 24862 net.cpp:122] Setting up mnist
I0409 20:15:25.059137 24862 net.cpp:129] Top shape: 128 1 28 28 (100352)
I0409 20:15:25.059152 24862 net.cpp:129] Top shape: 128 (128)
I0409 20:15:25.059164 24862 net.cpp:137] Memory required for data: 401920
I0409 20:15:25.059183 24862 layer_factory.hpp:77] Creating layer data_mnist_0_split
I0409 20:15:25.059231 24862 net.cpp:84] Creating Layer data_mnist_0_split
I0409 20:15:25.059250 24862 net.cpp:406] data_mnist_0_split <- data
I0409 20:15:25.059278 24862 net.cpp:380] data_mnist_0_split -> data_mnist_0_split_0
I0409 20:15:25.059301 24862 net.cpp:380] data_mnist_0_split -> data_mnist_0_split_1
I0409 20:15:25.059383 24862 net.cpp:122] Setting up data_mnist_0_split
I0409 20:15:25.059399 24862 net.cpp:129] Top shape: 128 1 28 28 (100352)
I0409 20:15:25.059412 24862 net.cpp:129] Top shape: 128 1 28 28 (100352)
I0409 20:15:25.059422 24862 net.cpp:137] Memory required for data: 1204736
I0409 20:15:25.059432 24862 layer_factory.hpp:77] Creating layer conv1
I0409 20:15:25.059468 24862 net.cpp:84] Creating Layer conv1
I0409 20:15:25.059478 24862 net.cpp:406] conv1 <- data_mnist_0_split_0
I0409 20:15:25.059492 24862 net.cpp:380] conv1 -> conv1
I0409 20:15:25.065605 24862 net.cpp:122] Setting up conv1
I0409 20:15:25.065645 24862 net.cpp:129] Top shape: 128 256 20 20 (13107200)
I0409 20:15:25.065656 24862 net.cpp:137] Memory required for data: 53633536
I0409 20:15:25.065690 24862 layer_factory.hpp:77] Creating layer relu1
I0409 20:15:25.065714 24862 net.cpp:84] Creating Layer relu1
I0409 20:15:25.065726 24862 net.cpp:406] relu1 <- conv1
I0409 20:15:25.065742 24862 net.cpp:367] relu1 -> conv1 (in-place)
I0409 20:15:25.065762 24862 net.cpp:122] Setting up relu1
I0409 20:15:25.065775 24862 net.cpp:129] Top shape: 128 256 20 20 (13107200)
I0409 20:15:25.065785 24862 net.cpp:137] Memory required for data: 106062336
I0409 20:15:25.065801 24862 layer_factory.hpp:77] Creating layer conv2
I0409 20:15:25.065846 24862 net.cpp:84] Creating Layer conv2
I0409 20:15:25.065871 24862 net.cpp:406] conv2 <- conv1
I0409 20:15:25.065897 24862 net.cpp:380] conv2 -> conv2
I0409 20:15:25.120164 24862 net.cpp:122] Setting up conv2
I0409 20:15:25.120209 24862 net.cpp:129] Top shape: 128 256 6 6 (1179648)
I0409 20:15:25.120226 24862 net.cpp:137] Memory required for data: 110780928
I0409 20:15:25.120246 24862 layer_factory.hpp:77] Creating layer squash1
I0409 20:15:25.120270 24862 net.cpp:84] Creating Layer squash1
I0409 20:15:25.120278 24862 net.cpp:406] squash1 <- conv2
I0409 20:15:25.120291 24862 net.cpp:367] squash1 -> conv2 (in-place)
I0409 20:15:25.120340 24862 net.cpp:122] Setting up squash1
I0409 20:15:25.120352 24862 net.cpp:129] Top shape: 128 256 6 6 (1179648)
I0409 20:15:25.120362 24862 net.cpp:137] Memory required for data: 115499520
I0409 20:15:25.120370 24862 layer_factory.hpp:77] Creating layer capsule
I0409 20:15:25.120395 24862 net.cpp:84] Creating Layer capsule
I0409 20:15:25.120405 24862 net.cpp:406] capsule <- conv2
I0409 20:15:25.120415 24862 net.cpp:380] capsule -> capsule
I0409 20:15:25.135869 24862 net.cpp:122] Setting up capsule
I0409 20:15:25.135910 24862 net.cpp:129] Top shape: 128 10 16 (20480)
I0409 20:15:25.135917 24862 net.cpp:137] Memory required for data: 115581440
I0409 20:15:25.135934 24862 layer_factory.hpp:77] Creating layer squash2
I0409 20:15:25.135953 24862 net.cpp:84] Creating Layer squash2
I0409 20:15:25.135962 24862 net.cpp:406] squash2 <- capsule
I0409 20:15:25.135972 24862 net.cpp:367] squash2 -> capsule (in-place)
I0409 20:15:25.136034 24862 net.cpp:122] Setting up squash2
I0409 20:15:25.136044 24862 net.cpp:129] Top shape: 128 10 16 (20480)
I0409 20:15:25.136050 24862 net.cpp:137] Memory required for data: 115663360
I0409 20:15:25.136056 24862 layer_factory.hpp:77] Creating layer capsule_squash2_0_split
I0409 20:15:25.136067 24862 net.cpp:84] Creating Layer capsule_squash2_0_split
I0409 20:15:25.136075 24862 net.cpp:406] capsule_squash2_0_split <- capsule
I0409 20:15:25.136085 24862 net.cpp:380] capsule_squash2_0_split -> capsule_squash2_0_split_0
I0409 20:15:25.136096 24862 net.cpp:380] capsule_squash2_0_split -> capsule_squash2_0_split_1
I0409 20:15:25.136131 24862 net.cpp:122] Setting up capsule_squash2_0_split
I0409 20:15:25.136138 24862 net.cpp:129] Top shape: 128 10 16 (20480)
I0409 20:15:25.136147 24862 net.cpp:129] Top shape: 128 10 16 (20480)
I0409 20:15:25.136152 24862 net.cpp:137] Memory required for data: 115827200
I0409 20:15:25.136158 24862 layer_factory.hpp:77] Creating layer margin
I0409 20:15:25.136175 24862 net.cpp:84] Creating Layer margin
I0409 20:15:25.136181 24862 net.cpp:406] margin <- capsule_squash2_0_split_0
I0409 20:15:25.136189 24862 net.cpp:406] margin <- label
I0409 20:15:25.136198 24862 net.cpp:380] margin -> loss
I0409 20:15:25.136266 24862 net.cpp:122] Setting up margin
I0409 20:15:25.136276 24862 net.cpp:129] Top shape: (1)
I0409 20:15:25.136282 24862 net.cpp:132]     with loss weight 1
I0409 20:15:25.136327 24862 net.cpp:137] Memory required for data: 115827204
I0409 20:15:25.136332 24862 layer_factory.hpp:77] Creating layer mask
I0409 20:15:25.136343 24862 net.cpp:84] Creating Layer mask
I0409 20:15:25.136350 24862 net.cpp:406] mask <- capsule_squash2_0_split_1
I0409 20:15:25.136368 24862 net.cpp:380] mask -> masked_capsule
I0409 20:15:25.136420 24862 net.cpp:122] Setting up mask
I0409 20:15:25.136430 24862 net.cpp:129] Top shape: 128 10 16 (20480)
I0409 20:15:25.136435 24862 net.cpp:137] Memory required for data: 115909124
I0409 20:15:25.136442 24862 layer_factory.hpp:77] Creating layer decode
I0409 20:15:25.136454 24862 net.cpp:84] Creating Layer decode
I0409 20:15:25.136461 24862 net.cpp:406] decode <- masked_capsule
I0409 20:15:25.136471 24862 net.cpp:380] decode -> decode
I0409 20:15:25.141716 24862 net.cpp:122] Setting up decode
I0409 20:15:25.141746 24862 net.cpp:129] Top shape: 128 512 (65536)
I0409 20:15:25.141752 24862 net.cpp:137] Memory required for data: 116171268
I0409 20:15:25.141764 24862 layer_factory.hpp:77] Creating layer sigmoid2
I0409 20:15:25.141779 24862 net.cpp:84] Creating Layer sigmoid2
I0409 20:15:25.141788 24862 net.cpp:406] sigmoid2 <- decode
I0409 20:15:25.141796 24862 net.cpp:367] sigmoid2 -> decode (in-place)
I0409 20:15:25.141808 24862 net.cpp:122] Setting up sigmoid2
I0409 20:15:25.141816 24862 net.cpp:129] Top shape: 128 512 (65536)
I0409 20:15:25.141822 24862 net.cpp:137] Memory required for data: 116433412
I0409 20:15:25.141829 24862 layer_factory.hpp:77] Creating layer decode1
I0409 20:15:25.141841 24862 net.cpp:84] Creating Layer decode1
I0409 20:15:25.141847 24862 net.cpp:406] decode1 <- decode
I0409 20:15:25.141856 24862 net.cpp:380] decode1 -> decode1
I0409 20:15:25.178504 24862 net.cpp:122] Setting up decode1
I0409 20:15:25.178546 24862 net.cpp:129] Top shape: 128 1024 (131072)
I0409 20:15:25.178553 24862 net.cpp:137] Memory required for data: 116957700
I0409 20:15:25.178572 24862 layer_factory.hpp:77] Creating layer sigmoid1
I0409 20:15:25.178591 24862 net.cpp:84] Creating Layer sigmoid1
I0409 20:15:25.178599 24862 net.cpp:406] sigmoid1 <- decode1
I0409 20:15:25.178611 24862 net.cpp:367] sigmoid1 -> decode1 (in-place)
I0409 20:15:25.178624 24862 net.cpp:122] Setting up sigmoid1
I0409 20:15:25.178632 24862 net.cpp:129] Top shape: 128 1024 (131072)
I0409 20:15:25.178638 24862 net.cpp:137] Memory required for data: 117481988
I0409 20:15:25.178645 24862 layer_factory.hpp:77] Creating layer decode2
I0409 20:15:25.178658 24862 net.cpp:84] Creating Layer decode2
I0409 20:15:25.178663 24862 net.cpp:406] decode2 <- decode1
I0409 20:15:25.178678 24862 net.cpp:380] decode2 -> decode2
I0409 20:15:25.215144 24862 net.cpp:122] Setting up decode2
I0409 20:15:25.215189 24862 net.cpp:129] Top shape: 128 784 (100352)
I0409 20:15:25.215196 24862 net.cpp:137] Memory required for data: 117883396
I0409 20:15:25.215210 24862 layer_factory.hpp:77] Creating layer sigmoid
I0409 20:15:25.215236 24862 net.cpp:84] Creating Layer sigmoid
I0409 20:15:25.215245 24862 net.cpp:406] sigmoid <- decode2
I0409 20:15:25.215256 24862 net.cpp:380] sigmoid -> sigmoid
I0409 20:15:25.215283 24862 net.cpp:122] Setting up sigmoid
I0409 20:15:25.215292 24862 net.cpp:129] Top shape: 128 784 (100352)
I0409 20:15:25.215298 24862 net.cpp:137] Memory required for data: 118284804
I0409 20:15:25.215306 24862 layer_factory.hpp:77] Creating layer flatdata
I0409 20:15:25.215322 24862 net.cpp:84] Creating Layer flatdata
I0409 20:15:25.215328 24862 net.cpp:406] flatdata <- data_mnist_0_split_1
I0409 20:15:25.215339 24862 net.cpp:380] flatdata -> flatdata
I0409 20:15:25.215366 24862 net.cpp:122] Setting up flatdata
I0409 20:15:25.215375 24862 net.cpp:129] Top shape: 128 784 (100352)
I0409 20:15:25.215381 24862 net.cpp:137] Memory required for data: 118686212
I0409 20:15:25.215389 24862 layer_factory.hpp:77] Creating layer loss
I0409 20:15:25.215399 24862 net.cpp:84] Creating Layer loss
I0409 20:15:25.215406 24862 net.cpp:406] loss <- sigmoid
I0409 20:15:25.215414 24862 net.cpp:406] loss <- flatdata
I0409 20:15:25.215421 24862 net.cpp:380] loss -> loss1
I0409 20:15:25.215463 24862 net.cpp:122] Setting up loss
…
I0409 20:15:25.216763 24862 solver.cpp:190] Creating test net (#0) specified by net file: examples/mnist/lenet_train_test.prototxt
I0409 20:15:25.216810 24862 net.cpp:294] The NetState phase (1) differed from the phase (0) specified by a rule in layer mnist
I0409 20:15:25.216966 24862 net.cpp:51] Initializing net from parameters: 
name: "LeNet"
state {
  phase: TEST
}
layer {
  name: "mnist"
  type: "Data"
  top: "data"
  top: "label"
  include {
    phase: TEST
  }
  transform_param {
    scale: 0.00390625
  }
  data_param {
    source: "examples/mnist/mnist_test_lmdb"
    batch_size: 16
    backend: LMDB
  }
}
layer {
  name: "conv1"
  type: "Convolution"
  bottom: "data"
  top: "conv1"
  param {
    lr_mult: 1
  }
  param {
    lr_mult: 2
  }
  convolution_param {
    num_output: 256
    kernel_size: 9
    stride: 1
    weight_filler {
      type: "xavier"
    }
    bias_filler {
      type: "constant"
    }
  }
}
layer {
  name: "relu1"
  type: "ReLU"
  bottom: "conv1"
  top: "conv1"
}
layer {
  name: "conv2"
  type: "Convolution"
  bottom: "conv1"
  top: "conv2"
  param {
    lr_mult: 1
  }
  param {
    lr_mult: 2
  }
  convolution_param {
    num_output: 256
    kernel_size: 9
    stride: 2
    weight_filler {
      type: "xavier"
    }
    bias_filler {
      type: "constant"
    }
  }
}
layer {
  name: "squash1"
  type: "Squash"
  bottom: "conv2"
  top: "conv2"
  squash_param {
    capsule_dim: 8
  }
}
layer {
  name: "capsule"
  type: "Cap"
  bottom: "conv2"
  top: "capsule"
  param {
    lr_mult: 1
  }
  param {
    lr_mult: 2
  }
  cap_param {
    weight_filler {
      type: "xavier"
    }
    bias_filler {
      type: "constant"
    }
    input_capsule_dim: 8
    output_capsule_dim: 16
    output_capsule_num: 10
  }
}
layer {
  name: "squash2"
  type: "Squash"
  bottom: "capsule"
  top: "capsule"
  squash_param {
    capsule_dim: 16
  }
}
layer {
  name: "margin"
  type: "MarginLoss"
  bottom: "capsule"
  bottom: "label"
  top: "loss"
  margin_param {
    num_class: 10
    m_upper_bound: 0.9
    m_lower_bound: 0.1
    lambda: 0.5
  }
}
layer {
  name: "mask"
  type: "CapsuleMask"
  bottom: "capsule"
  top: "masked_capsule"
  capsule_mask_param {
    class_num: 10
  }
}
layer {
  name: "decode"
  type: "InnerProduct"
  bottom: "masked_capsule"
  top: "decode"
  param {
    lr_mult: 1
    decay_mult: 1
  }
  param {
    lr_mult: 1
    decay_mult: 0
  }
  inner_product_param {
    num_output: 512
    weight_filler {
      type: "gaussian"
      std: 1
      sparse: 15
    }
    bias_filler {
      type: "constant"
    }
  }
}
layer {
  name: "sigmoid2"
  type: "Sigmoid"
  bottom: "decode"
  top: "decode"
}
layer {
  name: "decode1"
  type: "InnerProduct"
  bottom: "decode"
  top: "decode1"
  param {
    lr_mult: 1
    decay_mult: 1
  }
  param {
    lr_mult: 1
    decay_mult: 0
  }
  inner_product_param {
    num_output: 1024
    weight_filler {
      type: "gaussian"
      std: 1
      sparse: 15
    }
    bias_filler {
      type: "constant"
    }
  }
}
layer {
  name: "sigmoid1"
  type: "Sigmoid"
  bottom: "decode1"
  top: "decode1"
}
layer {
  name: "decode2"
  type: "InnerProduct"
  bottom: "decode1"
  top: "decode2"
  param {
    lr_mult: 1
    decay_mult: 1
  }
  param {
    lr_mult: 1
    decay_mult: 0
  }
  inner_product_param {
    num_output: 784
    weight_filler {
      type: "gaussian"
      std: 1
      sparse: 15
    }
    bias_filler {
      type: "constant"
    }
  }
}
layer {
  name: "sigmoid"
  type: "Sigmoid"
  bottom: "decode2"
  top: "sigmoid"
}
layer {
  name: "flatdata"
  type: "Flatten"
  bottom: "data"
  top: "flatdata"
}
layer {
  name: "loss"
  type: "EuclideanLoss"
  bottom: "sigmoid"
  bottom: "flatdata"
  top: "loss1"
  loss_weight: 0.392
}
I0409 20:15:25.217104 24862 layer_factory.hpp:77] Creating layer mnist
I0409 20:15:25.224923 24862 db_lmdb.cpp:35] Opened lmdb examples/mnist/mnist_test_lmdb
I0409 20:15:25.227767 24862 net.cpp:84] Creating Layer mnist
I0409 20:15:25.227807 24862 net.cpp:380] mnist -> data
I0409 20:15:25.227828 24862 net.cpp:380] mnist -> label
I0409 20:15:25.227985 24862 data_layer.cpp:45] output data size: 16,1,28,28
I0409 20:15:25.229804 24862 net.cpp:122] Setting up mnist
I0409 20:15:25.229830 24862 net.cpp:129] Top shape: 16 1 28 28 (12544)
I0409 20:15:25.229840 24862 net.cpp:129] Top shape: 16 (16)
I0409 20:15:25.229846 24862 net.cpp:137] Memory required for data: 50240
I0409 20:15:25.229856 24862 layer_factory.hpp:77] Creating layer data_mnist_0_split
I0409 20:15:25.229872 24862 net.cpp:84] Creating Layer data_mnist_0_split
I0409 20:15:25.229881 24862 net.cpp:406] data_mnist_0_split <- data
I0409 20:15:25.229893 24862 net.cpp:380] data_mnist_0_split -> data_mnist_0_split_0
I0409 20:15:25.229912 24862 net.cpp:380] data_mnist_0_split -> data_mnist_0_split_1
I0409 20:15:25.230022 24862 net.cpp:122] Setting up data_mnist_0_split
I0409 20:15:25.230033 24862 net.cpp:129] Top shape: 16 1 28 28 (12544)
I0409 20:15:25.230041 24862 net.cpp:129] Top shape: 16 1 28 28 (12544)
I0409 20:15:25.230046 24862 net.cpp:137] Memory required for data: 150592
I0409 20:15:25.230053 24862 layer_factory.hpp:77] Creating layer conv1
I0409 20:15:25.230073 24862 net.cpp:84] Creating Layer conv1
I0409 20:15:25.230082 24862 net.cpp:406] conv1 <- data_mnist_0_split_0
I0409 20:15:25.230090 24862 net.cpp:380] conv1 -> conv1
I0409 20:15:25.230489 24862 net.cpp:122] Setting up conv1
I0409 20:15:25.230501 24862 net.cpp:129] Top shape: 16 256 20 20 (1638400)
I0409 20:15:25.230507 24862 net.cpp:137] Memory required for data: 6704192
I0409 20:15:25.230521 24862 layer_factory.hpp:77] Creating layer relu1
I0409 20:15:25.230531 24862 net.cpp:84] Creating Layer relu1
I0409 20:15:25.230538 24862 net.cpp:406] relu1 <- conv1
I0409 20:15:25.230546 24862 net.cpp:367] relu1 -> conv1 (in-place)
I0409 20:15:25.230556 24862 net.cpp:122] Setting up relu1
I0409 20:15:25.230563 24862 net.cpp:129] Top shape: 16 256 20 20 (1638400)
I0409 20:15:25.230569 24862 net.cpp:137] Memory required for data: 13257792
I0409 20:15:25.230576 24862 layer_factory.hpp:77] Creating layer conv2
I0409 20:15:25.230590 24862 net.cpp:84] Creating Layer conv2
I0409 20:15:25.230597 24862 net.cpp:406] conv2 <- conv1
I0409 20:15:25.230607 24862 net.cpp:380] conv2 -> conv2
I0409 20:15:25.276203 24862 net.cpp:122] Setting up conv2
I0409 20:15:25.276252 24862 net.cpp:129] Top shape: 16 256 6 6 (147456)
I0409 20:15:25.276259 24862 net.cpp:137] Memory required for data: 13847616
I0409 20:15:25.276276 24862 layer_factory.hpp:77] Creating layer squash1
I0409 20:15:25.276293 24862 net.cpp:84] Creating Layer squash1
I0409 20:15:25.276301 24862 net.cpp:406] squash1 <- conv2
I0409 20:15:25.276311 24862 net.cpp:367] squash1 -> conv2 (in-place)
I0409 20:15:25.276345 24862 net.cpp:122] Setting up squash1
I0409 20:15:25.276355 24862 net.cpp:129] Top shape: 16 256 6 6 (147456)
I0409 20:15:25.276360 24862 net.cpp:137] Memory required for data: 14437440
I0409 20:15:25.276366 24862 layer_factory.hpp:77] Creating layer capsule
I0409 20:15:25.276379 24862 net.cpp:84] Creating Layer capsule
I0409 20:15:25.276386 24862 net.cpp:406] capsule <- conv2
I0409 20:15:25.276399 24862 net.cpp:380] capsule -> capsule
I0409 20:15:25.291941 24862 net.cpp:122] Setting up capsule
I0409 20:15:25.291985 24862 net.cpp:129] Top shape: 16 10 16 (2560)
I0409 20:15:25.291991 24862 net.cpp:137] Memory required for data: 14447680
I0409 20:15:25.292008 24862 layer_factory.hpp:77] Creating layer squash2
I0409 20:15:25.292026 24862 net.cpp:84] Creating Layer squash2
I0409 20:15:25.292033 24862 net.cpp:406] squash2 <- capsule
I0409 20:15:25.292043 24862 net.cpp:367] squash2 -> capsule (in-place)
I0409 20:15:25.292075 24862 net.cpp:122] Setting up squash2
I0409 20:15:25.292083 24862 net.cpp:129] Top shape: 16 10 16 (2560)
I0409 20:15:25.292090 24862 net.cpp:137] Memory required for data: 14457920
I0409 20:15:25.292096 24862 layer_factory.hpp:77] Creating layer capsule_squash2_0_split
I0409 20:15:25.292110 24862 net.cpp:84] Creating Layer capsule_squash2_0_split
I0409 20:15:25.292117 24862 net.cpp:406] capsule_squash2_0_split <- capsule
I0409 20:15:25.292125 24862 net.cpp:380] capsule_squash2_0_split -> capsule_squash2_0_split_0
I0409 20:15:25.292135 24862 net.cpp:380] capsule_squash2_0_split -> capsule_squash2_0_split_1
I0409 20:15:25.292173 24862 net.cpp:122] Setting up capsule_squash2_0_split
I0409 20:15:25.292182 24862 net.cpp:129] Top shape: 16 10 16 (2560)
I0409 20:15:25.292189 24862 net.cpp:129] Top shape: 16 10 16 (2560)
I0409 20:15:25.292196 24862 net.cpp:137] Memory required for data: 14478400
I0409 20:15:25.292201 24862 layer_factory.hpp:77] Creating layer margin
I0409 20:15:25.292217 24862 net.cpp:84] Creating Layer margin
I0409 20:15:25.292224 24862 net.cpp:406] margin <- capsule_squash2_0_split_0
I0409 20:15:25.292237 24862 net.cpp:406] margin <- label
I0409 20:15:25.292277 24862 net.cpp:380] margin -> loss
I0409 20:15:25.292332 24862 net.cpp:122] Setting up margin
I0409 20:15:25.292341 24862 net.cpp:129] Top shape: (1)
I0409 20:15:25.292347 24862 net.cpp:132]     with loss weight 1
I0409 20:15:25.292361 24862 net.cpp:137] Memory required for data: 14478404
I0409 20:15:25.292368 24862 layer_factory.hpp:77] Creating layer mask
I0409 20:15:25.292381 24862 net.cpp:84] Creating Layer mask
I0409 20:15:25.292387 24862 net.cpp:406] mask <- capsule_squash2_0_split_1
I0409 20:15:25.292395 24862 net.cpp:380] mask -> masked_capsule
I0409 20:15:25.292444 24862 net.cpp:122] Setting up mask
I0409 20:15:25.292454 24862 net.cpp:129] Top shape: 16 10 16 (2560)
I0409 20:15:25.292459 24862 net.cpp:137] Memory required for data: 14488644
I0409 20:15:25.292466 24862 layer_factory.hpp:77] Creating layer decode
I0409 20:15:25.292479 24862 net.cpp:84] Creating Layer decode
I0409 20:15:25.292486 24862 net.cpp:406] decode <- masked_capsule
I0409 20:15:25.292495 24862 net.cpp:380] decode -> decode
I0409 20:15:25.297143 24862 net.cpp:122] Setting up decode
I0409 20:15:25.297183 24862 net.cpp:129] Top shape: 16 512 (8192)
I0409 20:15:25.297190 24862 net.cpp:137] Memory required for data: 14521412
I0409 20:15:25.297202 24862 layer_factory.hpp:77] Creating layer sigmoid2
I0409 20:15:25.297225 24862 net.cpp:84] Creating Layer sigmoid2
I0409 20:15:25.297235 24862 net.cpp:406] sigmoid2 <- decode
I0409 20:15:25.297245 24862 net.cpp:367] sigmoid2 -> decode (in-place)
I0409 20:15:25.297257 24862 net.cpp:122] Setting up sigmoid2
I0409 20:15:25.297266 24862 net.cpp:129] Top shape: 16 512 (8192)
I0409 20:15:25.297272 24862 net.cpp:137] Memory required for data: 14554180
I0409 20:15:25.297278 24862 layer_factory.hpp:77] Creating layer decode1
I0409 20:15:25.297291 24862 net.cpp:84] Creating Layer decode1
I0409 20:15:25.297297 24862 net.cpp:406] decode1 <- decode
I0409 20:15:25.297305 24862 net.cpp:380] decode1 -> decode1
I0409 20:15:25.328478 24862 net.cpp:122] Setting up decode1
I0409 20:15:25.328580 24862 net.cpp:129] Top shape: 16 1024 (16384)
I0409 20:15:25.328605 24862 net.cpp:137] Memory required for data: 14619716
I0409 20:15:25.328675 24862 layer_factory.hpp:77] Creating layer sigmoid1
I0409 20:15:25.328766 24862 net.cpp:84] Creating Layer sigmoid1
I0409 20:15:25.328795 24862 net.cpp:406] sigmoid1 <- decode1
I0409 20:15:25.328827 24862 net.cpp:367] sigmoid1 -> decode1 (in-place)
I0409 20:15:25.328864 24862 net.cpp:122] Setting up sigmoid1
I0409 20:15:25.328891 24862 net.cpp:129] Top shape: 16 1024 (16384)
I0409 20:15:25.328912 24862 net.cpp:137] Memory required for data: 14685252
I0409 20:15:25.328933 24862 layer_factory.hpp:77] Creating layer decode2
I0409 20:15:25.328974 24862 net.cpp:84] Creating Layer decode2
I0409 20:15:25.328999 24862 net.cpp:406] decode2 <- decode1
I0409 20:15:25.329027 24862 net.cpp:380] decode2 -> decode2
I0409 20:15:25.378950 24862 net.cpp:122] Setting up decode2
I0409 20:15:25.379004 24862 net.cpp:129] Top shape: 16 784 (12544)
I0409 20:15:25.379015 24862 net.cpp:137] Memory required for data: 14735428
I0409 20:15:25.379035 24862 layer_factory.hpp:77] Creating layer sigmoid
I0409 20:15:25.379070 24862 net.cpp:84] Creating Layer sigmoid
I0409 20:15:25.379084 24862 net.cpp:406] sigmoid <- decode2
I0409 20:15:25.379101 24862 net.cpp:380] sigmoid -> sigmoid
I0409 20:15:25.379151 24862 net.cpp:122] Setting up sigmoid
I0409 20:15:25.379164 24862 net.cpp:129] Top shape: 16 784 (12544)
I0409 20:15:25.379173 24862 net.cpp:137] Memory required for data: 14785604
I0409 20:15:25.379182 24862 layer_factory.hpp:77] Creating layer flatdata
I0409 20:15:25.379195 24862 net.cpp:84] Creating Layer flatdata
I0409 20:15:25.379206 24862 net.cpp:406] flatdata <- data_mnist_0_split_1
I0409 20:15:25.379226 24862 net.cpp:380] flatdata -> flatdata
I0409 20:15:25.379266 24862 net.cpp:122] Setting up flatdata
I0409 20:15:25.379277 24862 net.cpp:129] Top shape: 16 784 (12544)
I0409 20:15:25.379287 24862 net.cpp:137] Memory required for data: 14835780
I0409 20:15:25.379303 24862 layer_factory.hpp:77] Creating layer loss
I0409 20:15:25.379360 24862 net.cpp:84] Creating Layer loss
I0409 20:15:25.379372 24862 net.cpp:406] loss <- sigmoid
I0409 20:15:25.379384 24862 net.cpp:406] loss <- flatdata
I0409 20:15:25.379395 24862 net.cpp:380] loss -> loss1
I0409 20:15:25.379458 24862 net.cpp:122] Setting up loss
…
