…
I0824 14:48:55.720623  3931 net.cpp:294] The NetState phase (0) differed from the phase (1) specified by a rule in layer cap_len
I0824 14:48:55.720631  3931 net.cpp:294] The NetState phase (0) differed from the phase (1) specified by a rule in layer accuracy
I0824 14:48:55.720760  3931 net.cpp:51] Initializing net from parameters: 
name: "LeNet"
state {
  phase: TRAIN
  level: 0
  stage: ""
}
layer {
  name: "mnist"
  type: "Data"
  top: "data"
  top: "label"
  include {
    phase: TRAIN
  }
  transform_param {
    scale: 0.00390625
  }
  data_param {
    source: "data/mnist/mnist_train_lmdb"
    batch_size: 100
    backend: LMDB
  }
}
layer {
  name: "conv1"
  type: "Convolution"
  bottom: "data"
  top: "conv1"
  param {
    lr_mult: 1
  }
  param {
    lr_mult: 2
  }
  convolution_param {
    num_output: 256
    kernel_size: 9
    stride: 1
    weight_filler {
      type: "xavier"
    }
    bias_filler {
      type: "constant"
    }
  }
}
layer {
  name: "cap_relu1"
  type: "ReLU"
  bottom: "conv1"
  top: "conv1"
}
layer {
  name: "conv2"
  type: "Convolution"
  bottom: "conv1"
  top: "conv2"
  param {
    lr_mult: 1
  }
  param {
    lr_mult: 2
  }
  convolution_param {
    num_output: 256
    kernel_size: 9
    stride: 2
    weight_filler {
      type: "xavier"
    }
    bias_filler {
      type: "constant"
    }
  }
}
layer {
  name: "cap_relu2"
  type: "ReLU"
  bottom: "conv2"
  top: "conv2"
}
layer {
  name: "reshape"
  type: "CapsuleReshape"
  bottom: "conv2"
  top: "conv2_reshaped"
  capsule_reshape_param {
    capsule_dim: 16
  }
}
layer {
  name: "squash1"
  type: "Squash"
  bottom: "conv2_reshaped"
  top: "squash1"
  squash_param {
    capsule_dim: 16
  }
}
layer {
  name: "cap_conv_transform"
  type: "CapsuleConvTransform"
  bottom: "squash1"
  top: "cap_conv_transform"
  capsule_conv_transform_param {
    weight_filler {
      type: "xavier"
    }
    bias_filler {
      type: "constant"
      value: 0
    }
    stride: 2
    kh: 4
    kw: 4
    input_capsule_num: 16
    input_capsule_shape {
      dim: 4
      dim: 4
    }
    output_capsule_num: 10
    output_capsule_shape {
      dim: 4
      dim: 4
    }
    input_h: 6
    input_w: 6
  }
}
layer {
  name: "cap_conv_routing"
  type: "CapsuleConvRouting"
  bottom: "cap_conv_transform"
  top: "cap_conv_routing"
  capsule_conv_routing_param {
    weight_filler {
      type: "xavier"
    }
    stride: 2
    kh: 4
    kw: 4
    input_capsule_num: 16
    output_capsule_num: 10
    output_capsule_shape {
      dim: 4
      dim: 4
    }
    input_h: 6
    input_w: 6
  }
}
layer {
  name: "cap_relu3"
  type: "ReLU"
  bottom: "cap_conv_routing"
  top: "cap_conv_routing"
}
layer {
  name: "squash3"
  type: "Squash"
  bottom: "cap_conv_routing"
  top: "squash3"
  squash_param {
    capsule_dim: 64
  }
}
layer {
  name: "margin"
  type: "MarginLoss"
  bottom: "squash3"
  bottom: "label"
  top: "loss"
  margin_param {
    num_class: 10
    m_upper_bound: 0.7
    m_lower_bound: 0.1
    lambda: 0.5
  }
}
I0824 14:48:55.720854  3931 layer_factory.hpp:77] Creating layer mnist
I0824 14:48:55.724231  3931 db_lmdb.cpp:35] Opened lmdb data/mnist/mnist_train_lmdb
I0824 14:48:55.724454  3931 net.cpp:84] Creating Layer mnist
I0824 14:48:55.724478  3931 net.cpp:380] mnist -> data
I0824 14:48:55.724510  3931 net.cpp:380] mnist -> label
I0824 14:48:55.725984  3931 data_layer.cpp:45] output data size: 100,1,28,28
I0824 14:48:55.735226  3931 net.cpp:122] Setting up mnist
I0824 14:48:55.735254  3931 net.cpp:129] Top shape: 100 1 28 28 (78400)
I0824 14:48:55.735263  3931 net.cpp:129] Top shape: 100 (100)
I0824 14:48:55.735270  3931 net.cpp:137] Memory required for data: 314000
I0824 14:48:55.735282  3931 layer_factory.hpp:77] Creating layer conv1
I0824 14:48:55.735304  3931 net.cpp:84] Creating Layer conv1
I0824 14:48:55.735316  3931 net.cpp:406] conv1 <- data
I0824 14:48:55.735342  3931 net.cpp:380] conv1 -> conv1
I0824 14:48:55.738232  3931 net.cpp:122] Setting up conv1
I0824 14:48:55.738251  3931 net.cpp:129] Top shape: 100 256 20 20 (10240000)
I0824 14:48:55.738260  3931 net.cpp:137] Memory required for data: 41274000
I0824 14:48:55.738279  3931 layer_factory.hpp:77] Creating layer cap_relu1
I0824 14:48:55.738293  3931 net.cpp:84] Creating Layer cap_relu1
I0824 14:48:55.738302  3931 net.cpp:406] cap_relu1 <- conv1
I0824 14:48:55.738313  3931 net.cpp:367] cap_relu1 -> conv1 (in-place)
I0824 14:48:55.738335  3931 net.cpp:122] Setting up cap_relu1
I0824 14:48:55.738346  3931 net.cpp:129] Top shape: 100 256 20 20 (10240000)
I0824 14:48:55.738353  3931 net.cpp:137] Memory required for data: 82234000
I0824 14:48:55.738360  3931 layer_factory.hpp:77] Creating layer conv2
I0824 14:48:55.738376  3931 net.cpp:84] Creating Layer conv2
I0824 14:48:55.738384  3931 net.cpp:406] conv2 <- conv1
I0824 14:48:55.738395  3931 net.cpp:380] conv2 -> conv2
I0824 14:48:55.781091  3931 net.cpp:122] Setting up conv2
I0824 14:48:55.781131  3931 net.cpp:129] Top shape: 100 256 6 6 (921600)
I0824 14:48:55.781139  3931 net.cpp:137] Memory required for data: 85920400
I0824 14:48:55.781157  3931 layer_factory.hpp:77] Creating layer cap_relu2
I0824 14:48:55.781172  3931 net.cpp:84] Creating Layer cap_relu2
I0824 14:48:55.781180  3931 net.cpp:406] cap_relu2 <- conv2
I0824 14:48:55.781193  3931 net.cpp:367] cap_relu2 -> conv2 (in-place)
I0824 14:48:55.781206  3931 net.cpp:122] Setting up cap_relu2
I0824 14:48:55.781216  3931 net.cpp:129] Top shape: 100 256 6 6 (921600)
I0824 14:48:55.781224  3931 net.cpp:137] Memory required for data: 89606800
I0824 14:48:55.781230  3931 layer_factory.hpp:77] Creating layer reshape
I0824 14:48:55.781246  3931 net.cpp:84] Creating Layer reshape
I0824 14:48:55.781255  3931 net.cpp:406] reshape <- conv2
I0824 14:48:55.781263  3931 net.cpp:380] reshape -> conv2_reshaped
I0824 14:48:55.781297  3931 net.cpp:122] Setting up reshape
I0824 14:48:55.781308  3931 net.cpp:129] Top shape: 100 576 16 (921600)
I0824 14:48:55.781316  3931 net.cpp:137] Memory required for data: 93293200
I0824 14:48:55.781323  3931 layer_factory.hpp:77] Creating layer squash1
I0824 14:48:55.781347  3931 net.cpp:84] Creating Layer squash1
I0824 14:48:55.781354  3931 net.cpp:406] squash1 <- conv2_reshaped
I0824 14:48:55.781363  3931 net.cpp:380] squash1 -> squash1
I0824 14:48:55.781401  3931 net.cpp:122] Setting up squash1
I0824 14:48:55.781411  3931 net.cpp:129] Top shape: 100 576 16 (921600)
I0824 14:48:55.781419  3931 net.cpp:137] Memory required for data: 96979600
I0824 14:48:55.781425  3931 layer_factory.hpp:77] Creating layer cap_conv_transform
I0824 14:48:55.781440  3931 net.cpp:84] Creating Layer cap_conv_transform
I0824 14:48:55.781448  3931 net.cpp:406] cap_conv_transform <- squash1
I0824 14:48:55.781457  3931 net.cpp:380] cap_conv_transform -> cap_conv_transform
I0824 14:48:55.781991  3931 net.cpp:122] Setting up cap_conv_transform
I0824 14:48:55.782002  3931 net.cpp:129] Top shape: 100 4 256 160 (16384000)
I0824 14:48:55.782011  3931 net.cpp:137] Memory required for data: 162515600
I0824 14:48:55.782023  3931 layer_factory.hpp:77] Creating layer cap_conv_routing
I0824 14:48:55.782040  3931 net.cpp:84] Creating Layer cap_conv_routing
I0824 14:48:55.782048  3931 net.cpp:406] cap_conv_routing <- cap_conv_transform
I0824 14:48:55.782058  3931 net.cpp:380] cap_conv_routing -> cap_conv_routing
I0824 14:48:55.783598  3931 net.cpp:122] Setting up cap_conv_routing
I0824 14:48:55.783622  3931 net.cpp:129] Top shape: 100 40 16 (64000)
I0824 14:48:55.783658  3931 net.cpp:137] Memory required for data: 162771600
I0824 14:48:55.783669  3931 layer_factory.hpp:77] Creating layer cap_relu3
I0824 14:48:55.783679  3931 net.cpp:84] Creating Layer cap_relu3
I0824 14:48:55.783687  3931 net.cpp:406] cap_relu3 <- cap_conv_routing
I0824 14:48:55.783696  3931 net.cpp:367] cap_relu3 -> cap_conv_routing (in-place)
I0824 14:48:55.783707  3931 net.cpp:122] Setting up cap_relu3
I0824 14:48:55.783716  3931 net.cpp:129] Top shape: 100 40 16 (64000)
I0824 14:48:55.783725  3931 net.cpp:137] Memory required for data: 163027600
I0824 14:48:55.783731  3931 layer_factory.hpp:77] Creating layer squash3
I0824 14:48:55.783741  3931 net.cpp:84] Creating Layer squash3
I0824 14:48:55.783749  3931 net.cpp:406] squash3 <- cap_conv_routing
I0824 14:48:55.783758  3931 net.cpp:380] squash3 -> squash3
I0824 14:48:55.783800  3931 net.cpp:122] Setting up squash3
I0824 14:48:55.783812  3931 net.cpp:129] Top shape: 100 40 16 (64000)
I0824 14:48:55.783818  3931 net.cpp:137] Memory required for data: 163283600
I0824 14:48:55.783825  3931 layer_factory.hpp:77] Creating layer margin
I0824 14:48:55.783840  3931 net.cpp:84] Creating Layer margin
I0824 14:48:55.783849  3931 net.cpp:406] margin <- squash3
I0824 14:48:55.783860  3931 net.cpp:406] margin <- label
I0824 14:48:55.783871  3931 net.cpp:380] margin -> loss
I0824 14:48:55.783931  3931 net.cpp:122] Setting up margin
…
I0824 14:48:55.784785  3931 solver.cpp:190] Creating test net (#0) specified by net file: examples/mnist/g_conv_capsule_train1.prototxt
I0824 14:48:55.784826  3931 net.cpp:294] The NetState phase (1) differed from the phase (0) specified by a rule in layer mnist
I0824 14:48:55.784965  3931 net.cpp:51] Initializing net from parameters: 
name: "LeNet"
state {
  phase: TEST
}
layer {
  name: "mnist"
  type: "Data"
  top: "data"
  top: "label"
  include {
    phase: TEST
  }
  transform_param {
    scale: 0.00390625
  }
  data_param {
    source: "data/mnist/mnist_test_lmdb"
    batch_size: 100
    backend: LMDB
  }
}
layer {
  name: "conv1"
  type: "Convolution"
  bottom: "data"
  top: "conv1"
  param {
    lr_mult: 1
  }
  param {
    lr_mult: 2
  }
  convolution_param {
    num_output: 256
    kernel_size: 9
    stride: 1
    weight_filler {
      type: "xavier"
    }
    bias_filler {
      type: "constant"
    }
  }
}
layer {
  name: "cap_relu1"
  type: "ReLU"
  bottom: "conv1"
  top: "conv1"
}
layer {
  name: "conv2"
  type: "Convolution"
  bottom: "conv1"
  top: "conv2"
  param {
    lr_mult: 1
  }
  param {
    lr_mult: 2
  }
  convolution_param {
    num_output: 256
    kernel_size: 9
    stride: 2
    weight_filler {
      type: "xavier"
    }
    bias_filler {
      type: "constant"
    }
  }
}
layer {
  name: "cap_relu2"
  type: "ReLU"
  bottom: "conv2"
  top: "conv2"
}
layer {
  name: "reshape"
  type: "CapsuleReshape"
  bottom: "conv2"
  top: "conv2_reshaped"
  capsule_reshape_param {
    capsule_dim: 16
  }
}
layer {
  name: "squash1"
  type: "Squash"
  bottom: "conv2_reshaped"
  top: "squash1"
  squash_param {
    capsule_dim: 16
  }
}
layer {
  name: "cap_conv_transform"
  type: "CapsuleConvTransform"
  bottom: "squash1"
  top: "cap_conv_transform"
  capsule_conv_transform_param {
    weight_filler {
      type: "xavier"
    }
    bias_filler {
      type: "constant"
      value: 0
    }
    stride: 2
    kh: 4
    kw: 4
    input_capsule_num: 16
    input_capsule_shape {
      dim: 4
      dim: 4
    }
    output_capsule_num: 10
    output_capsule_shape {
      dim: 4
      dim: 4
    }
    input_h: 6
    input_w: 6
  }
}
layer {
  name: "cap_conv_routing"
  type: "CapsuleConvRouting"
  bottom: "cap_conv_transform"
  top: "cap_conv_routing"
  capsule_conv_routing_param {
    weight_filler {
      type: "xavier"
    }
    stride: 2
    kh: 4
    kw: 4
    input_capsule_num: 16
    output_capsule_num: 10
    output_capsule_shape {
      dim: 4
      dim: 4
    }
    input_h: 6
    input_w: 6
  }
}
layer {
  name: "cap_relu3"
  type: "ReLU"
  bottom: "cap_conv_routing"
  top: "cap_conv_routing"
}
layer {
  name: "squash3"
  type: "Squash"
  bottom: "cap_conv_routing"
  top: "squash3"
  squash_param {
    capsule_dim: 64
  }
}
layer {
  name: "cap_len"
  type: "CapsuleLen"
  bottom: "squash3"
  top: "cap_len"
  include {
    phase: TEST
  }
  capsule_len_param {
    num_class: 10
  }
}
layer {
  name: "accuracy"
  type: "Accuracy"
  bottom: "cap_len"
  bottom: "label"
  top: "accuracy"
  include {
    phase: TEST
  }
}
layer {
  name: "margin"
  type: "MarginLoss"
  bottom: "squash3"
  bottom: "label"
  top: "loss"
  margin_param {
    num_class: 10
    m_upper_bound: 0.7
    m_lower_bound: 0.1
    lambda: 0.5
  }
}
I0824 14:48:55.785085  3931 layer_factory.hpp:77] Creating layer mnist
I0824 14:48:55.786368  3931 db_lmdb.cpp:35] Opened lmdb data/mnist/mnist_test_lmdb
I0824 14:48:55.786568  3931 net.cpp:84] Creating Layer mnist
I0824 14:48:55.786583  3931 net.cpp:380] mnist -> data
I0824 14:48:55.786600  3931 net.cpp:380] mnist -> label
I0824 14:48:55.786711  3931 data_layer.cpp:45] output data size: 100,1,28,28
I0824 14:48:55.789022  3931 net.cpp:122] Setting up mnist
I0824 14:48:55.789043  3931 net.cpp:129] Top shape: 100 1 28 28 (78400)
I0824 14:48:55.789053  3931 net.cpp:129] Top shape: 100 (100)
I0824 14:48:55.789060  3931 net.cpp:137] Memory required for data: 314000
I0824 14:48:55.789069  3931 layer_factory.hpp:77] Creating layer label_mnist_1_split
I0824 14:48:55.789086  3931 net.cpp:84] Creating Layer label_mnist_1_split
I0824 14:48:55.789094  3931 net.cpp:406] label_mnist_1_split <- label
I0824 14:48:55.789104  3931 net.cpp:380] label_mnist_1_split -> label_mnist_1_split_0
I0824 14:48:55.789116  3931 net.cpp:380] label_mnist_1_split -> label_mnist_1_split_1
I0824 14:48:55.789188  3931 net.cpp:122] Setting up label_mnist_1_split
I0824 14:48:55.789201  3931 net.cpp:129] Top shape: 100 (100)
I0824 14:48:55.789208  3931 net.cpp:129] Top shape: 100 (100)
I0824 14:48:55.789216  3931 net.cpp:137] Memory required for data: 314800
I0824 14:48:55.789223  3931 layer_factory.hpp:77] Creating layer conv1
I0824 14:48:55.789237  3931 net.cpp:84] Creating Layer conv1
I0824 14:48:55.789245  3931 net.cpp:406] conv1 <- data
I0824 14:48:55.789258  3931 net.cpp:380] conv1 -> conv1
I0824 14:48:55.789626  3931 net.cpp:122] Setting up conv1
I0824 14:48:55.789641  3931 net.cpp:129] Top shape: 100 256 20 20 (10240000)
I0824 14:48:55.789649  3931 net.cpp:137] Memory required for data: 41274800
I0824 14:48:55.789664  3931 layer_factory.hpp:77] Creating layer cap_relu1
I0824 14:48:55.789674  3931 net.cpp:84] Creating Layer cap_relu1
I0824 14:48:55.789681  3931 net.cpp:406] cap_relu1 <- conv1
I0824 14:48:55.789690  3931 net.cpp:367] cap_relu1 -> conv1 (in-place)
I0824 14:48:55.789700  3931 net.cpp:122] Setting up cap_relu1
I0824 14:48:55.789713  3931 net.cpp:129] Top shape: 100 256 20 20 (10240000)
I0824 14:48:55.789738  3931 net.cpp:137] Memory required for data: 82234800
I0824 14:48:55.789746  3931 layer_factory.hpp:77] Creating layer conv2
I0824 14:48:55.789762  3931 net.cpp:84] Creating Layer conv2
I0824 14:48:55.789769  3931 net.cpp:406] conv2 <- conv1
I0824 14:48:55.789780  3931 net.cpp:380] conv2 -> conv2
I0824 14:48:55.838057  3931 net.cpp:122] Setting up conv2
I0824 14:48:55.838104  3931 net.cpp:129] Top shape: 100 256 6 6 (921600)
I0824 14:48:55.838114  3931 net.cpp:137] Memory required for data: 85921200
I0824 14:48:55.838130  3931 layer_factory.hpp:77] Creating layer cap_relu2
I0824 14:48:55.838145  3931 net.cpp:84] Creating Layer cap_relu2
I0824 14:48:55.838155  3931 net.cpp:406] cap_relu2 <- conv2
I0824 14:48:55.838168  3931 net.cpp:367] cap_relu2 -> conv2 (in-place)
I0824 14:48:55.838181  3931 net.cpp:122] Setting up cap_relu2
I0824 14:48:55.838191  3931 net.cpp:129] Top shape: 100 256 6 6 (921600)
I0824 14:48:55.838198  3931 net.cpp:137] Memory required for data: 89607600
I0824 14:48:55.838205  3931 layer_factory.hpp:77] Creating layer reshape
I0824 14:48:55.838217  3931 net.cpp:84] Creating Layer reshape
I0824 14:48:55.838225  3931 net.cpp:406] reshape <- conv2
I0824 14:48:55.838234  3931 net.cpp:380] reshape -> conv2_reshaped
I0824 14:48:55.838263  3931 net.cpp:122] Setting up reshape
I0824 14:48:55.838274  3931 net.cpp:129] Top shape: 100 576 16 (921600)
I0824 14:48:55.838280  3931 net.cpp:137] Memory required for data: 93294000
I0824 14:48:55.838287  3931 layer_factory.hpp:77] Creating layer squash1
I0824 14:48:55.838304  3931 net.cpp:84] Creating Layer squash1
I0824 14:48:55.838311  3931 net.cpp:406] squash1 <- conv2_reshaped
I0824 14:48:55.838320  3931 net.cpp:380] squash1 -> squash1
I0824 14:48:55.838363  3931 net.cpp:122] Setting up squash1
I0824 14:48:55.838373  3931 net.cpp:129] Top shape: 100 576 16 (921600)
I0824 14:48:55.838380  3931 net.cpp:137] Memory required for data: 96980400
I0824 14:48:55.838387  3931 layer_factory.hpp:77] Creating layer cap_conv_transform
I0824 14:48:55.838403  3931 net.cpp:84] Creating Layer cap_conv_transform
I0824 14:48:55.838412  3931 net.cpp:406] cap_conv_transform <- squash1
I0824 14:48:55.838420  3931 net.cpp:380] cap_conv_transform -> cap_conv_transform
I0824 14:48:55.838965  3931 net.cpp:122] Setting up cap_conv_transform
I0824 14:48:55.838979  3931 net.cpp:129] Top shape: 100 4 256 160 (16384000)
I0824 14:48:55.838985  3931 net.cpp:137] Memory required for data: 162516400
I0824 14:48:55.838999  3931 layer_factory.hpp:77] Creating layer cap_conv_routing
I0824 14:48:55.839012  3931 net.cpp:84] Creating Layer cap_conv_routing
I0824 14:48:55.839020  3931 net.cpp:406] cap_conv_routing <- cap_conv_transform
I0824 14:48:55.839030  3931 net.cpp:380] cap_conv_routing -> cap_conv_routing
I0824 14:48:55.839149  3931 net.cpp:122] Setting up cap_conv_routing
I0824 14:48:55.839160  3931 net.cpp:129] Top shape: 100 40 16 (64000)
I0824 14:48:55.839167  3931 net.cpp:137] Memory required for data: 162772400
I0824 14:48:55.839176  3931 layer_factory.hpp:77] Creating layer cap_relu3
I0824 14:48:55.839186  3931 net.cpp:84] Creating Layer cap_relu3
I0824 14:48:55.839193  3931 net.cpp:406] cap_relu3 <- cap_conv_routing
I0824 14:48:55.839202  3931 net.cpp:367] cap_relu3 -> cap_conv_routing (in-place)
I0824 14:48:55.839211  3931 net.cpp:122] Setting up cap_relu3
I0824 14:48:55.839221  3931 net.cpp:129] Top shape: 100 40 16 (64000)
I0824 14:48:55.839227  3931 net.cpp:137] Memory required for data: 163028400
I0824 14:48:55.839234  3931 layer_factory.hpp:77] Creating layer squash3
I0824 14:48:55.839247  3931 net.cpp:84] Creating Layer squash3
I0824 14:48:55.839254  3931 net.cpp:406] squash3 <- cap_conv_routing
I0824 14:48:55.839263  3931 net.cpp:380] squash3 -> squash3
I0824 14:48:55.839301  3931 net.cpp:122] Setting up squash3
I0824 14:48:55.839311  3931 net.cpp:129] Top shape: 100 40 16 (64000)
I0824 14:48:55.839318  3931 net.cpp:137] Memory required for data: 163284400
I0824 14:48:55.839329  3931 layer_factory.hpp:77] Creating layer squash3_squash3_0_split
I0824 14:48:55.839377  3931 net.cpp:84] Creating Layer squash3_squash3_0_split
I0824 14:48:55.839386  3931 net.cpp:406] squash3_squash3_0_split <- squash3
I0824 14:48:55.839395  3931 net.cpp:380] squash3_squash3_0_split -> squash3_squash3_0_split_0
I0824 14:48:55.839406  3931 net.cpp:380] squash3_squash3_0_split -> squash3_squash3_0_split_1
I0824 14:48:55.839445  3931 net.cpp:122] Setting up squash3_squash3_0_split
I0824 14:48:55.839455  3931 net.cpp:129] Top shape: 100 40 16 (64000)
I0824 14:48:55.839463  3931 net.cpp:129] Top shape: 100 40 16 (64000)
I0824 14:48:55.839470  3931 net.cpp:137] Memory required for data: 163796400
I0824 14:48:55.839478  3931 layer_factory.hpp:77] Creating layer cap_len
I0824 14:48:55.839494  3931 net.cpp:84] Creating Layer cap_len
I0824 14:48:55.839502  3931 net.cpp:406] cap_len <- squash3_squash3_0_split_0
I0824 14:48:55.839511  3931 net.cpp:380] cap_len -> cap_len
I0824 14:48:55.839552  3931 net.cpp:122] Setting up cap_len
I0824 14:48:55.839562  3931 net.cpp:129] Top shape: 100 10 (1000)
I0824 14:48:55.839570  3931 net.cpp:137] Memory required for data: 163800400
I0824 14:48:55.839576  3931 layer_factory.hpp:77] Creating layer accuracy
I0824 14:48:55.839588  3931 net.cpp:84] Creating Layer accuracy
I0824 14:48:55.839596  3931 net.cpp:406] accuracy <- cap_len
I0824 14:48:55.839604  3931 net.cpp:406] accuracy <- label_mnist_1_split_0
I0824 14:48:55.839615  3931 net.cpp:380] accuracy -> accuracy
…
